Subprojects/CNN/example/trained_net.pth (torch, 368624 bytes, 10 tensors)

conv1.weight f4 [12, 3, 5, 5]
0	0xbe48a211	-0.19593073
1	0xbdf7928b	-0.12088498
2	0x3e47abdd	0.19499154
3	0xbd0dad30	-0.034588993
4	0x3c4a284f	0.012338712
5	0xbdfd3b1a	-0.12364788
6	0xbe8e378b	-0.2777675
7	0xbdee39e0	-0.116321325
8	0x3e7d5c0b	0.24742143
9	0x3e00e6dd	0.12588067
10	0x3e0f2953	0.13980608
11	0xbe50c1a5	-0.2038637
12	0xbec7fce9	-0.39060143
13	0xbd5ea6de	-0.054358356
14	0x3d84e381	0.064887054
15	0x3e78c1fd	0.2429275
16	0xbcf05c6d	-0.029340947
17	0xbe78e021	-0.24304248
18	0xbec0f7a5	-0.37688938
19	0xbe309b5b	-0.17246763
20	0x3defd2dc	0.1171014
21	0x3eb06604	0.34452832
22	0x3e9d6abb	0.3074549
23	0xbce5ff60	-0.028075874
24	0xbd69f77c	-0.057120785
25	0xbe3810f2	-0.17975214
26	0xbdbc46b4	-0.09193173
27	0x3e1574b0	0.14595294
28	0x3da6a813	0.08137526
29	0xbd37a270	-0.044832647
30	0xbe951edb	-0.29125103
31	0xbea46f38	-0.32116103
32	0xbe7bbe73	-0.2458437
33	0x3e50d2d7	0.20392929
34	0xbcabf8b2	-0.02099261
35	0x3d92134e	0.07132588
36	0xbe91a91e	-0.2844934
37	0xbeba6d47	-0.36411497
38	0xbe451001	-0.19244386
39	0x3e3a0f8f	0.18169998
40	0x3e2c3ed1	0.16820838
41	0xbd2c5f1d	-0.042082895
42	0xbdbe81b8	-0.09302086
43	0xbea69149	-0.3253272
44	0xbd927296	-0.07150762
45	0x3da7a1f2	0.081851855
46	0x3e83cb29	0.25740936
47	0x3e91716c	0.28406847
48	0x3bd6c47d	0.006554185
49	0xbe0fb168	-0.14032519
50	0x3d481b37	0.04885408
51	0xbd260166	-0.040528677
52	0x3e60b600	0.21944427
53	0x3e0f754d	0.1400959
54	0xbd01f1c4	-0.031724706
55	0xbdf4835e	-0.11939119
56	0xbe8fa24a	-0.28053504
57	0xbd6f969a	-0.058493234
58	0x3e43f5d3	0.19136743
59	0xbccf86e8	-0.025332883
60	0x3e6e0b0d	0.23246403
61	0xbe1b9af5	-0.1519583
62	0xbeb05745	-0.3444158
63	0xbc51cd38	-0.012805276
64	0x3e544b73	0.20731907
65	0x3e499790	0.19686723
66	0x3e2519a7	0.16123067
67	0xbe6881bc	-0.2270574
68	0xbeb0e97a	-0.34553128
69	0xbdd9f0c9	-0.10641629
70	0x3e8d05d2	0.27543503
71	0x3e8f1dd5	0.27952448
72	0x3e153cae	0.14573929
73	0x3d53dbe9	0.051723395
74	0xbe726ddb	-0.23674719
75	0x3e6af7b6	0.22946057
76	0x3eec3880	0.46136856
77	0x3f0152ed	0.5051716
78	0x3ec31a77	0.3810613
79	0x3e72755d	0.23677583
80	0x3d0e4187	0.03473046
81	0x3e229196	0.15875849
82	0x3e62804e	0.22119257
83	0x3ea7b5db	0.32755932
84	0x3d85dbfa	0.06536098
85	0xbda062fc	-0.0783138
86	0x3d2c9f67	0.042144205
87	0xbdccebde	-0.100059256
88	0x3d303e0a	0.043027915
89	0xbcd3999a	-0.025830079
90	0xbec70f09	-0.38878658
91	0x3c0d18f8	0.00861191
92	0x3c267372	0.01015936
93	0x3d35b799	0.044364545
94	0xbda3c034	-0.07995644
95	0xbecdb667	-0.40178224
96	0xbeee28a0	-0.4651537
97	0xbed2057f	-0.41019818
98	0xbefe18a8	-0.49628186
99	0xbe6ce54b	-0.23134343
100	0xbe2f4c3a	-0.17118922
101	0x3dab7d8b	0.08373555
102	0x3da13f9d	0.078734614
103	0x3e8aba95	0.27095476
104	0x3db9e82f	0.09077489
105	0xbe201c3d	-0.15635772
106	0xbe925c31	-0.2858596
107	0xbece0d45	-0.402445
108	0xbe9147ec	-0.28375185
109	0xbe9e5fa3	-0.3093234
110	0x3d85f040	0.06539965
111	0x3db1fa4e	0.0869032
112	0xbd10fbd0	-0.035396397
113	0xbe5dcffb	-0.2166137
114	0xbe69a6e9	-0.22817577
115	0x3c398a5f	0.011324494
116	0x3e3ed9d7	0.18637787
117	0x3ec9787c	0.39349735
118	0x3ea3aeaf	0.3196921
119	0x3ea3f184	0.320202
120	0xbe4cbb98	-0.19993436
121	0xbe5f44ac	-0.2180354
122	0xbe3cdac5	-0.18442829
123	0xbe0a547c	-0.1350879
124	0x3e089f01	0.13341905
125	0xbe2e1125	-0.16998728
126	0xbd66e4e2	-0.056370623
127	0xbe83cc4b	-0.257418
128	0xbdf48c45	-0.11940817
129	0x3d9ebe45	0.07751135
130	0xbe3c4fef	-0.18389867
131	0xbec7fc1e	-0.39059538
132	0xbef94c71	-0.48691133
133	0xbebbe79b	-0.36700138
134	0xbe9ce3c1	-0.30642512
135	0x3e82158b	0.2540706
136	0x3e00f3f7	0.12593065
137	0xbe528186	-0.20557222
138	0xbdd624e0	-0.10456252
139	0xbd98b35c	-0.07456085
140	0x3e7091d2	0.23493126
141	0x3ee53cd9	0.44772986
142	0x3ed2b451	0.41153196
143	0x3eea738a	0.45791274
144	0x3e66501e	0.224915
145	0x3e7ebd2e	0.24876854
146	0x3df7faf4	0.121084124
147	0x3e66d4a3	0.22542052
148	0x3e2a3be8	0.16624415
149	0x3e8f09a0	0.2793703
150	0xbd9d6771	-0.076857455
151	0x3cf4c823	0.029880589
152	0x3d5f2bc2	0.05448509
153	0x3b7bd314	0.0038425373
154	0x3d869399	0.06571121
155	0x3e38b9f9	0.18039693
156	0x3e34bc4c	0.17649955
157	0x3e179d41	0.14806081
158	0x3e934c98	0.28769374
159	0x3e26ed21	0.16301395
160	0xbb52b373	-0.0032150417
161	0x3e076b60	0.13224554
162	0x3dd95a2e	0.106129035
163	0x3e2e66b9	0.17031373
164	0x3e8bbef0	0.2729411
165	0x3cdd088c	0.026981615
166	0x3c6221ce	0.013802005
167	0x3d63ff86	0.055663608
168	0x3db4efdf	0.08834814
169	0x3da404f8	0.0800876
170	0xbda57c1c	-0.080803126
171	0x3ca46650	0.020068318
172	0x3cdb456b	0.0267665
173	0xbb0beb47	-0.0021349953
174	0xbcfd8743	-0.030948287
175	0x3d703df9	0.05865285
176	0x3d62f8bc	0.055412993
177	0xbabb01c7	-0.0014267497
178	0x3d51a27e	0.051180355
179	0xbe243e44	-0.16039377
180	0x3decaa45	0.11555914
181	0x3e2ecf7f	0.17071341
182	0x3d3399ae	0.043847732
183	0x3ce28343	0.027650481
184	0x3dfa5ef9	0.12225146
185	0x3d47d74a	0.0487893
186	0xbd174aca	-0.03693656
187	0x3dcf75fc	0.101299256
188	0x3db97be2	0.09056832
189	0xbc877367	-0.01653452
190	0x3c7f9a0c	0.0156006925
191	0xbdad5834	-0.08464089
192	0x3dd92948	0.10603577
193	0xbd950ac4	-0.07277444
194	0x3da3786e	0.079819545
195	0xbe204fbe	-0.15655419
196	0xbcd02dfc	-0.025412552
197	0xbda61b87	-0.08110719
198	0xbc6474e2	-0.013943883
199	0x3d8176bc	0.06321475
200	0xbc057280	-0.008144975
201	0xbc0ab40a	-0.008465776
202	0x3e0d542c	0.1380164
203	0x3ddaeaaf	0.106892936
204	0x3d0dfd9a	0.03466568
205	0xbd2f3ea2	-0.04278434
206	0x3df5b7f8	0.1199798
207	0x3e80fbdc	0.25192153
208	0x3e2e7637	0.17037283
209	0x3d81e0f7	0.06341737
210	0xbdab3e28	-0.08361465
211	0xbc6b9465	-0.014378642
212	0x3e112353	0.14173631
213	0x3ca2cc3b	0.019872775
214	0x3deb073f	0.114759915
215	0xbdd705b7	-0.10499137
216	0xbd5f4ccd	-0.054516602
217	0xbcfefd4c	-0.03112664
218	0xbcdcefdf	-0.026969848
219	0xbca91466	-0.02063961
220	0xbe2e3b94	-0.17014915
221	0xbe1c92d3	-0.15290384
222	0xbcf8d3d2	-0.030374441
223	0x3bfc5315	0.007700334
224	0xbd1565c7	-0.036474016
225	0x3df51b8f	0.11968147
226	0x3dbaa918	0.09114283
227	0xbebaca0a	-0.3648227
228	0x3a899f8f	0.0010499823
229	0x3e181d60	0.14854956
230	0xbe427874	-0.18991262
231	0x3e83e5c7	0.25761244
232	0x3ee65937	0.4498994
233	0xbeb92757	-0.36162826
234	0xbe3d41d1	-0.18482138
235	0xbed67334	-0.41884768
236	0xbefe78df	-0.49701592
237	0x3f8b14be	1.0865705
238	0x3da3e6a2	0.08002974
239	0xbe8891a5	-0.26673618
240	0x3e09c2a3	0.13453154
241	0xbf058753	-0.52159613
242	0xbd7dc80d	-0.06195836
243	0x3ec4312e	0.3831877
244	0x3dc34def	0.09536349
245	0x3d9bd82b	0.0760959
246	0x3def28d7	0.116777115
247	0xbea7e167	-0.32789156
248	0xbd95690e	-0.07295428
249	0x3d573c63	0.052547824
250	0x3e09977a	0.1343669
251	0x3decd1b9	0.11563439
252	0xbeb9a8da	-0.36261636
253	0x3dda2e1f	0.10653328
254	0x3e940988	0.28913522
255	0xbd963f05	-0.07336239

conv1.bias f4 [12]
0	0xbea0fd88	-0.3144343
1	0xbe181d17	-0.14854847
2	0x3d9a3e61	0.07531429
3	0xbd0612b8	-0.032732695
4	0x3f0d9b61	0.55315214
5	0xbe6cda38	-0.23130119
6	0xbdd20e85	-0.10256676
7	0xbe50878e	-0.2036421
8	0xbdbe4fea	-0.09292586
9	0x3dbb2c5d	0.09139321
10	0x3f0709bd	0.52749234
11	0x3e0f69f6	0.14005265

conv2.weight f4 [24, 12, 5, 5]
0	0xbe0ba2f4	-0.1363638
1	0xbe050f3c	-0.12994093
2	0xbe27c3fd	-0.16383357
3	0x3d5df46c	0.054188177
4	0x3e48b2be	0.19599435
5	0xbe3abc2b	-0.18235843
6	0xbe2dd813	-0.16976957
7	0xbd9e5eec	-0.07732949
8	0x3d36d56f	0.04463714
9	0x3e54a0a6	0.20764408
10	0xbcfbfcb5	-0.030760149
11	0xbde56bb2	-0.11202182
12	0xbccd0f7c	-0.025031798
13	0x3dc51468	0.09623033
14	0x3e294b88	0.16532719
15	0x3d18bee1	0.03729141
16	0x3e10c3c3	0.14137177
17	0x3dbef18a	0.09323414
18	0x3d74c1bc	0.059755072
19	0x3de65aed	0.112478115
20	0x3db9e119	0.09076137
21	0x3e153918	0.14572561
22	0x3e0f8a4a	0.14017597
23	0xbba01b36	-0.0048860563
24	0xbdbde143	-0.09271481
25	0x3bead749	0.0071667773
26	0xbd26625f	-0.040621158
27	0xbd616c0a	-0.055034675
28	0x3d4a0adf	0.049326774
29	0x3d37d134	0.044877246
30	0xbca7383d	-0.020412559
31	0xbd6c538a	-0.057696857
32	0xbccec2d3	-0.025239384
33	0xbd371db1	-0.04470605
34	0xbdb05701	-0.08610345
35	0x3d1d409a	0.038391687
36	0xbc60fff0	-0.013732895
37	0x3c06a8e9	0.008218982
38	0xbdbcf1da	-0.09225817
39	0xbe0ee29d	-0.13953634
40	0xbc34f42c	-0.011044543
41	0x3bd8060e	0.0065925186
42	0xbc84367f	-0.016139267
43	0xbdbdcf92	-0.092681065
44	0xbd5ccb28	-0.053904682
45	0x3d169a77	0.036768403
46	0xbd9b8dd1	-0.07595409
47	0xbccd2a5b	-0.02504461
48	0xbe092efb	-0.13396828
49	0xbdf7aff5	-0.12094108
50	0x3d9a0593	0.075205944
51	0x3d0d4333	0.034487914
52	0xbd9c557c	-0.07633492
53	0xbdaf3858	-0.085556686
54	0xbde70f98	-0.11282271
55	0x3d3bee3c	0.045881495
56	0x3d2c55b6	0.042073928
57	0xbdc60934	-0.09669724
58	0xbdff73d0	-0.12473261
59	0xbe182267	-0.14856873
60	0x3d6c4fc5	0.05769326
61	0x3cf738ce	0.030178454
62	0xbd155a5f	-0.036463138
63	0xbe19514e	-0.14972422
64	0xbdb96768	-0.09052926
65	0xbd110fe8	-0.03541556
66	0x3c206cf7	0.009791604
67	0xbdd818f7	-0.10551637
68	0xbdf90196	-0.121585056
69	0x3c2ae140	0.01042968
70	0x3db3fa67	0.08787995
71	0x3ad6106e	0.0016331801
72	0xbd24fff3	-0.040283155
73	0x3ca823b1	0.020524831
74	0x3d3f31a0	0.046678185
75	0xbdab5331	-0.08365477
76	0xbe077668	-0.13228762
77	0xbe5945fe	-0.21218106
78	0x3d0c3fd5	0.034240562
79	0x3c9213b6	0.017831665
80	0xbd19761e	-0.03746616
81	0xbdfc93b4	-0.1233286
82	0xbe0febc6	-0.14054784
83	0xbc44f4d1	-0.012021259
84	0x3df1c693	0.11805453
85	0xbb640a13	-0.0034796044
86	0xbe72c6b9	-0.23708619
87	0xbd9d2cae	-0.076745376
88	0x3e7a8fe9	0.2446896
89	0x3e25a778	0.16177166
90	0xbe5283e7	-0.20558129
91	0xbe2808f4	-0.16409665
92	0x3de02ab4	0.10945645
93	0x3dc18cca	0.094506815
94	0xbc109bec	-0.008826237
95	0xbeafa7d4	-0.3430773
96	0xbdaa2456	-0.08307712
97	0xbd65adcf	-0.05607396
98	0x3cab933f	0.020944236
99	0xbe1a2b41	-0.15055563
100	0xbc9ed0bf	-0.019386647
101	0x3dad8247	0.08472114
102	0x3b6ffe13	0.0036619946
103	0xbd28d3fa	-0.04121778
104	0xbca57a98	-0.020200059
105	0x3de2e50b	0.11078843
106	0x3e013599	0.12618102
107	0x3d249bd2	0.040187664
108	0xbdb51f8d	-0.088439085
109	0xbdb5b2bd	-0.08871982
110	0xbd02d004	-0.03193666
111	0x3c7098d8	0.014684878
112	0x3c8b82e4	0.017030187
113	0x3c198b86	0.009371644
114	0xbda6f0b2	-0.08151378
115	0xbd3d764f	-0.046255406
116	0x3ccfcbf2	0.025365803
117	0xbcd3e364	-0.025865264
118	0xbc86a774	-0.01643727
119	0xbce9bb2d	-0.028531635
120	0x3dfef5d6	0.12449233
121	0x3cf66842	0.03007901
122	0x3bd8129e	0.006594016
123	0x3cfd2ba0	0.030904591
124	0x3b6abfa9	0.0035819805
125	0xbd8ed3b8	-0.06973976
126	0xbda57491	-0.08078874
127	0x3cbc36ab	0.022975286
128	0x3d9083a4	0.070563585
129	0x3de1693f	0.11006402
130	0x3b96f3ff	0.0046067233
131	0x3c52706d	0.012844187
132	0xbb730ef9	-0.0037087782
133	0x3dbbe3e4	0.09174326
134	0x3d7d1b6d	0.061793733
135	0x3dfbad50	0.12288916
136	0x3d5216b2	0.051291175
137	0x3d7b7963	0.06139506
138	0x3d604d8c	0.054761454
139	0x3d663ccf	0.056210335
140	0x3e0fc251	0.1403897
141	0xbc247930	-0.010038659
142	0xbbde0ba4	-0.00677629
143	0xbd6d9f0b	-0.058013003
144	0xbcd2b2ba	-0.02571999
145	0x3e126a1b	0.14298289
146	0x3ce705f4	0.02820108
147	0xbcef8a2d	-0.029240692
148	0xbd229759	-0.039695118
149	0xbc6a43e8	-0.014298417
150	0xbe2804c2	-0.16408065
151	0xbd8786ad	-0.06617484
152	0xbdaa2282	-0.08307363
153	0xbdf00fe7	-0.11721783
154	0xbe19b7d6	-0.15011534
155	0xbddcf2c0	-0.107884884
156	0xbe007758	-0.12545526
157	0xbdb3c9f5	-0.087787546
158	0x3d3e6d34	0.046490863
159	0x3d1d5248	0.038408548
160	0xbe867a9b	-0.26265416
161	0xbe1e78aa	-0.15475717
162	0x3b128943	0.0022359646
163	0x3dfbce19	0.122951694
164	0x3e4ded79	0.2011012
165	0xbdba699e	-0.09102176
166	0xbd9a0062	-0.07519604
167	0x3e587fc7	0.21142493
168	0x3e00c7f8	0.12576282
169	0x3e4efda3	0.20213942
170	0xbdefe637	-0.11713832
171	0x3d914563	0.070933126
172	0x3e8a0399	0.2695587
173	0x3e515e68	0.2044617
174	0x3de7135e	0.11282991
175	0x3e1ecea3	0.15508513
176	0x3d4cdcd1	0.050015274
177	0x3e2d74bb	0.1693906
178	0x3db3016a	0.08740504
179	0x39dc2196	0.00041986693
180	0x3d454b55	0.048167545
181	0xbbc1122c	-0.005892059
182	0x3e03928d	0.12848873
183	0x3df2d8f6	0.11857788
184	0xbda78630	-0.08179891
185	0x3da6baa5	0.08141068
186	0x3e379e9a	0.17931595
187	0xbc0edc56	-0.008719524
188	0xbccb9e6e	-0.024855819
189	0xbd8da89b	-0.069169246
190	0x3d7d2308	0.061800987
191	0x3e115ff5	0.14196761
192	0xbd030117	-0.03198346
193	0xba50f4eb	-0.0007971066
194	0xbe360fe3	-0.17779498
195	0x3e145696	0.14486155
196	0x3d850955	0.064959206
197	0x3c877647	0.016535891
198	0xbdb3fedb	-0.08788844
199	0xbe6925e1	-0.22768356
200	0xbe187412	-0.14888027
201	0xbde54143	-0.11194088
202	0xbcc86030	-0.024459928
203	0xbd17dea3	-0.037077557
204	0xbdebe6cc	-0.115186304
205	0xbd53c25c	-0.051699027
206	0xbd74f48f	-0.05980354
207	0x3ce657a0	0.028117955
208	0x3bfc9f18	0.007709395
209	0x3d579869	0.052635584
210	0xbdb9f566	-0.09080009
211	0xbdbe1fbb	-0.09283396
212	0x3cad72ad	0.021172846
213	0x3d2379ab	0.039910953
214	0x3e276d53	0.16350298
215	0x3d1d7812	0.038444586
216	0x3d265fa8	0.04061857
217	0x3c357326	0.011074817
218	0xbdb5289a	-0.08845635
219	0xbc385f34	-0.011253167
220	0xbd6f5d83	-0.05843879
221	0xbd98385c	-0.07432625
222	0xbe193092	-0.14959934
223	0xbe4675f8	-0.19380939
224	0xbde91a91	-0.1138202
225	0x3df72e00	0.12069321
226	0x3cbd62a0	0.023118317
227	0x3b830a87	0.0039990577
228	0x3d4d8b7b	0.050181847
229	0xbd51ca37	-0.051218238
230	0x3db52d77	0.08846562
231	0x3c9708b0	0.01843676
232	0xbd9f761e	-0.07786201
233	0xbd55f9e4	-0.052240267
234	0xbb9e8884	-0.0048380513
235	0x3c1cba78	0.009565942
236	0xbba80bbc	-0.005128352
237	0xbd3494eb	-0.04408733
238	0xbe0eb488	-0.13936055
239	0xbcad5241	-0.021157386
240	0x3cf3da17	0.02976708
241	0xbbddda65	-0.0067704194
242	0xbd904b36	-0.07045595
243	0xbd4b5d4c	-0.04964952
244	0xbd6d35fa	-0.057912804
245	0x3dd2b7e6	0.10288982
246	0x3d323109	0.043503795
247	0x3d38777c	0.045035824
248	0xbc8fbe94	-0.01754693
249	0xbc862a07	-0.016377462
250	0x3e42b000	0.19012451
251	0x3e1f49a9	0.15555443
252	0x3d8510eb	0.064973675
253	0x3cd27caa	0.02569421
254	0x3cd512db	0.026009968
255	0x3e3f74db	0.1869692

conv2.bias f4 [24]
0	0xbbe97886	-0.007124963
1	0xbe2b830d	-0.1674921
2	0x3d8b1cfa	0.06792636
3	0x3de850b3	0.11343517
4	0xbe94366c	-0.2894777
5	0xbcf2c5c9	-0.029635327
6	0xbe9eea4c	-0.3103813
7	0x3f12d2d2	0.57352936
8	0xbe95095c	-0.29108703
9	0xbe013439	-0.12617578
10	0x3d98d520	0.07462525
11	0xbd57e016	-0.05270394
12	0xbdf13a7a	-0.11778732
13	0x3f32e490	0.6988001
14	0x3ed5f0fe	0.41785425
15	0xbd066f41	-0.032820944
16	0xbee556a8	-0.44792676
17	0x3f266bc2	0.65008175
18	0x3e1f9fb6	0.15588269
19	0xbe0c04c8	-0.13673699
20	0xbe6abb4a	-0.22923008
21	0x3dcfa12d	0.10138164
22	0xbac94f12	-0.0015358648
23	0xbeee2e7b	-0.46519837

fc1.weight f4 [120, 600]
0	0x3d388f15	0.04505833
1	0xbc67560a	-0.014119634
2	0x3cd9803a	0.026550401
3	0x3ccb6c0c	0.024831794
4	0x3d07c7e5	0.03314962
5	0xbb201f4b	-0.0024432715
6	0xbba56943	-0.0050479486
7	0xbd197365	-0.037463564
8	0x3cd05926	0.025433134
9	0xbcb62a45	-0.022236953
10	0x3d6d0823	0.057869088
11	0xbd9b2e53	-0.07577195
12	0x3d0e7708	0.034781486
13	0x3c13918b	0.009006868
14	0x3d1be3a4	0.038058892
15	0xbd2e7cae	-0.042599373
16	0xbc5f13f9	-0.013615602
17	0xbbd83816	-0.006598483
18	0x3d125d24	0.035733357
19	0xbd4b3315	-0.049609262
20	0x3c3d856d	0.011567456
21	0xbcb7bce2	-0.022428934
22	0xbca28553	-0.019838965
23	0x3c1b38a3	0.009473952
24	0xbd9a9a36	-0.07548945
25	0x3d36659c	0.044530496
26	0x3d01776f	0.03160804
27	0x3cbece21	0.02329165
28	0xbd057c24	-0.032589093
29	0xbdada03b	-0.08477827
30	0x3dc31b0d	0.09526644
31	0x3ce3436b	0.027742108
32	0xbd155d29	-0.036465798
33	0xbcb1ad54	-0.021689095
34	0x3cd548d6	0.026035707
35	0xbd5033a2	-0.05083049
36	0xbd6983da	-0.05701051
37	0x3cc434c9	0.023950951
38	0x3caa885e	0.020816978
39	0x3b31f261	0.0027152526
40	0xbd22eb56	-0.039775215
41	0xbd0a5c72	-0.03377957
42	0xbc2f7dd6	-0.010711154
43	0x3d3bbad8	0.045832485
44	0xbc4bd5f0	-0.012441143
45	0xbd89cb8e	-0.06728278
46	0xbd3a98dc	-0.045555934
47	0xbc62d4c5	-0.0138446735
48	0x3d4a1142	0.049332865
49	0x39e2564c	0.00043170375
50	0x3cb0c134	0.021576501
51	0x3d1d8dd1	0.038465325
52	0xba646dfb	-0.0008713898
53	0x384085d3	4.5901e-05
54	0x3d35e776	0.04441019
55	0x3d1c25ba	0.038121916
56	0xbd087fb6	-0.03332492
57	0xbd50f428	-0.051014096
58	0x3c8b7ac9	0.017026322
59	0xbb809f34	-0.0039252285
60	0x3b0f4d2d	0.0021866069
61	0xbd893e7b	-0.0670137
62	0xbc99ff77	-0.018798573
63	0x3ccd32ce	0.02504864
64	0x3d10e4b4	0.03537436
65	0x3d76f3fd	0.06029128
66	0x3d24c942	0.040230997
67	0x3b6eb6e4	0.003642493
68	0x3d9ecc70	0.07753837
69	0x3da87437	0.08225291
70	0x3da747ee	0.081680164
71	0x3d51d0f1	0.051224653
72	0x3c12682f	0.008935972
73	0x3b6ce80d	0.0036149055
74	0x3dca7cf7	0.098871164
75	0x3e02cb01	0.12772752
76	0x3cfde4b7	0.030992849
77	0x3c169f4d	0.009193254
78	0x3b8d84ca	0.004318808
79	0x3b2d1e25	0.0026415673
80	0x3da62a34	0.08113518
81	0x3c517a7b	0.012785549
82	0x3bc3c178	0.005973991
83	0xbc3fbbb4	-0.011702467
84	0xbd6ed0e7	-0.058304694
85	0x3c570f20	0.013126165
86	0xbb79dd35	-0.0038126234
87	0x3d1f53f6	0.03889843
88	0xbc8dc9ec	-0.017308198
89	0x3cb9ee99	0.02269678
90	0x3a510f79	0.0007975023
91	0x3c177368	0.009243824
92	0xbcff717b	-0.031182041
93	0x3d21e358	0.039523453
94	0xbb2a6810	-0.0026001967
95	0xbdc24d76	-0.09487431
96	0xbdd2c42f	-0.10291325
97	0x3d9beffa	0.07614131
98	0x3c14e0e7	0.009086824
99	0x3c88ae30	0.016684622
100	0xbbee35e0	-0.007269606
101	0x3da172c2	0.078832164
102	0x3cf8f332	0.030389402
103	0x3d995ead	0.07488761
104	0xbcb0a40f	-0.021562604
105	0x3d628b67	0.055308726
106	0x3ddd9228	0.10818893
107	0x3dbcc47b	0.09217163
108	0x3dc18c66	0.09450607
109	0x3d00a980	0.031411648
110	0xbb754ff0	-0.003743168
111	0x3d87251c	0.06598875
112	0x3d927cec	0.07152733
113	0x3d00c036	0.031433307
114	0x3d6ae50e	0.05734735
115	0xbcba4eb2	-0.022742603
116	0x3c15298c	0.009104144
117	0xbd13aa22	-0.036050923
118	0x3bb3f644	0.0054920036
119	0xbc64acf4	-0.013957251
120	0x3cf6f80c	0.030147575
121	0xb98adbe4	-0.00026485242
122	0xbd388864	-0.045051947
123	0x3c047b92	0.008086102
124	0xbc040221	-0.008057148
125	0x3d0ed327	0.03486934
126	0x3c2cb155	0.010540326
127	0xbbd97120	-0.0066358
128	0xbbb3c7d9	-0.00548647
129	0x3ba7b940	0.005118519
130	0xbcabb09b	-0.020958235
131	0x3cb8aa7c	0.02254223
132	0x3bca3933	0.0061713695
133	0xbc30c051	-0.010788039
134	0x3cd782f4	0.02630756
135	0x3b9b30ec	0.0047360566
136	0x3d76fc84	0.06029941
137	0x3dbdac7f	0.09261417
138	0xbc1c3b6f	-0.009535654
139	0x3d2489d6	0.040170513
140	0xbcd452e8	-0.025918439
141	0x3c2ae773	0.010431158
142	0x3d1b6714	0.0379401
143	0xbc380e27	-0.011233843
144	0xbcee8892	-0.029117856
145	0xbd228282	-0.039675243
146	0x3d2db840	0.042412043
147	0xbc1d1b84	-0.00958908
148	0x3c64d79d	0.013967422
149	0x3be61171	0.007021122
150	0x3d8a1858	0.067429245
151	0xbbd92221	-0.006626383
152	0x3cc77edf	0.024352489
153	0x3d664819	0.0562211
154	0xbce67dc5	-0.028136143
155	0x3d794776	0.060859166
156	0x3d1898dc	0.037255153
157	0x3c5bd896	0.013418337
158	0x3c4ffeb8	0.012695007
159	0xbd12fb8b	-0.03588442
160	0x3cfd2cd9	0.030905174
161	0x3d5de1ff	0.054170605
162	0x3d4ce024	0.050018445
163	0xbc73ffe5	-0.014892553
164	0x3d7e4d9d	0.062085737
165	0xbd440417	-0.047855463
166	0xbd48e3cb	-0.049045365
167	0x3d131b55	0.035914738
168	0x3c0ccc0c	0.00859357
169	0xbc8ac3fa	-0.016939152
170	0xbd753c44	-0.059871927
171	0x3c69ee8c	0.014278065
172	0xbd0f3de3	-0.03497113
173	0x3cf2ec20	0.029653609
174	0x3bfeb2af	0.0077727656
175	0xbc9636ff	-0.018336771
176	0xbd3d42da	-0.046206333
177	0x3d114788	0.03546861
178	0xbb82666a	-0.003979494
179	0xbd3a7018	-0.045517057
180	0x3c1ef446	0.009701794
181	0x3bf8c5ac	0.0075919237
182	0xbb0a9369	-0.0021144992
183	0x3d14ed25	0.03635897
184	0x3d04a6f1	0.03238577
185	0x3d27d079	0.0409703
186	0x3e15c1f3	0.14624767
187	0x3bebc724	0.0071953703
188	0x3d74bd7c	0.05975102
189	0x3db22c4f	0.086998574
190	0xbd802911	-0.06257833
191	0x3d11b5e3	0.03557385
192	0x3d8b1817	0.06791704
193	0xbc2dea23	-0.010614905
194	0x3c07fb65	0.008299683
195	0xbcd9e9dc	-0.02660077
196	0x3cfd428a	0.030915517
197	0xbad0f2e3	-0.0015941527
198	0x3d2d2fa9	0.04228178
199	0x3d089614	0.03334625
200	0xbd240831	-0.040046874
201	0xbcb29d08	-0.021803394
202	0xbd456325	-0.048190255
203	0xbb3596af	-0.0027708223
204	0x3d39b251	0.04533607
205	0xbda3f545	-0.08005766
206	0xbd81b8ee	-0.06334101
207	0xbcfc33bd	-0.03078639
208	0x3d3855a0	0.045003533
209	0x3de0f395	0.109839596
210	0x3b7b6679	0.003836064
211	0xbba02a47	-0.0048878524
212	0xbc982a3e	-0.01857483
213	0x3c5cd9ef	0.013479694
214	0x3c3ca50c	0.01151396
215	0xbc5f40f7	-0.013626329
216	0xbdb64b78	-0.08901113
217	0xbd929471	-0.07157219
218	0xbd8ac14b	-0.06775149
219	0xbc2108a9	-0.009828725
220	0xbd80a45f	-0.06281351
221	0xbd4efd35	-0.050534446
222	0xbdd7b527	-0.10532599
223	0xbe0b895c	-0.13626617
224	0xbdcc215a	-0.09967299
225	0x3d22e6ba	0.03977082
226	0x3d2fe99e	0.042947404
227	0x3d2e6615	0.04257782
228	0x3b77d972	0.0037818816
229	0xbc85ba1e	-0.0163241
230	0xbd7f304a	-0.06230191
231	0xbd0b6182	-0.034028538
232	0x3ce1919e	0.027535256
233	0xbd0d5fb4	-0.034515098
234	0xbd90bfda	-0.07067843
235	0xbd7efc3d	-0.062252272
236	0x38967989	7.175195e-05
237	0xbd8a52bd	-0.06754062
238	0x3d2185c3	0.039434206
239	0xbd069ea5	-0.03286614
240	0xbd4cded6	-0.0500172
241	0xbd01e3ca	-0.031711377
242	0xbd929f53	-0.07159295
243	0x3d57535d	0.052569736
244	0x3d498c0c	0.049205825
245	0xbd66d827	-0.056358483
246	0xbbea77a9	-0.007155378
247	0xbd7ead7f	-0.062177178
248	0x3be3d456	0.0069528027
249	0x3bb4f1a6	0.005521971
250	0xbdb3e5c6	-0.0878406
251	0xbdc5a8e6	-0.096513554
252	0x3c0a725c	0.008450117
253	0x3ca59864	0.020214267
254	0x3d4da2ac	0.050203964
255	0x3bbb9967	0.005725074

fc1.bias f4 [120]
0	0x3cc33c4f	0.023832468
1	0x3d8b40dd	0.06799481
2	0xbd30e7ca	-0.0431898
3	0x3be8b12c	0.0071011987
4	0xbd44e83d	-0.048073042
5	0xbc6b48a8	-0.014360584
6	0xbd446148	-0.047944337
7	0x3cbc7ff8	0.023010239
8	0x3be851d6	0.0070898337
9	0x3c8fca6a	0.017552573
10	0xbd5e78eb	-0.054314535
11	0xbc17ffef	-0.009277328
12	0xbd46beda	-0.048521854
13	0x3dafe687	0.085888915
14	0x3c184239	0.009293132
15	0xbd213353	-0.039355587
16	0x3cf67a2f	0.030087559
17	0x3dae1bfe	0.08501433
18	0x3e0276b9	0.12740602
19	0x3d3ca5c8	0.04605654
20	0xbd8b52cd	-0.06802902
21	0x3d17bc11	0.03704459
22	0xbd2b57b0	-0.041831672
23	0xbd9c9d0a	-0.0764714
24	0x3d177f33	0.03698654
25	0x3dc53ca5	0.09630708
26	0xbbdcea55	-0.0067418017
27	0xbe007f9e	-0.12548682
28	0x3d5000d4	0.05078204
29	0x3db50b40	0.088400364
30	0x3ce5abb6	0.02803598
31	0x3da2255b	0.07917281
32	0xbd7dc4e1	-0.061955336
33	0x3c95a92b	0.018269142
34	0xbbd604c9	-0.006531332
35	0x3dd00e52	0.101589814
36	0xbd1bb3d9	-0.038013313
37	0x3d8ebb35	0.06969301
38	0xbd113ef7	-0.03546044
39	0xbde2ff8f	-0.110839
40	0xbcc6d68d	-0.024272228
41	0xbc2aca0a	-0.010424146
42	0x3d596198	0.05307159
43	0x3ddb4c61	0.107079275
44	0x3a53e5b2	0.00080832385
45	0x3d18e476	0.037327252
46	0xbc031b46	-0.008002108
47	0xbca82393	-0.020524776
48	0xbb4a0ee2	-0.0030831625
49	0xbd3292de	-0.043597095
50	0x3df17641	0.11790133
51	0x3c38a5c8	0.011269994
52	0xbd6f2afd	-0.058390606
53	0xbd2f7831	-0.042839233
54	0x3a2a798e	0.00065030984
55	0x3e810768	0.25200963
56	0xbcf50a5b	-0.029912164
57	0xbc9e6ca0	-0.019338906
58	0x3bc4d0b3	0.006006324
59	0xbdac1b89	-0.084036894
60	0x3db93457	0.09043186
61	0x3d250860	0.04029119
62	0x3cb79a08	0.022412315
63	0x3d2af9d8	0.041742176
64	0xbd87922b	-0.06619676
65	0x3d96d012	0.07363905
66	0x3d28daeb	0.0412244
67	0x3d7ee7f9	0.062232945
68	0xbccfc0ab	-0.025360426
69	0x3dc02ec5	0.093839206
70	0x3c529df8	0.0128550455
71	0x3cba7c74	0.022764422
72	0xbd4bf1c3	-0.04979111
73	0x3e0fe1b6	0.14050946
74	0x3dacbf3c	0.084349126
75	0x3dc6c4bd	0.097054936
76	0xbbf31c1a	-0.0074191215
77	0xbc9a453a	-0.018831838
78	0x3de95f1e	0.11395095
79	0x3d2b1232	0.0417654
80	0x3d71091f	0.05884659
81	0xbd42fbbc	-0.047603354
82	0xbcb34150	-0.02188173
83	0xbc3dd4eb	-0.011586408
84	0x3c38b0e7	0.011272646
85	0xb9a2c298	-0.00031044031
86	0x3d005baf	0.031337436
87	0x3c7f142b	0.015568773
88	0xbd0dd0c3	-0.03462292
89	0xbb3bc6a8	-0.0028652344
90	0xbc0b9e64	-0.00852165
91	0x3cea4e4f	0.028601794
92	0xbc1b8b0f	-0.009493603
93	0xbc882f20	-0.016624033
94	0xbd4d8206	-0.05017283
95	0x3e076382	0.13221553
96	0xbcfcd938	-0.030865297
97	0xbc3b462f	-0.011430307
98	0x3d518905	0.051156063
99	0x3cd1b8f6	0.025600892
100	0x3ccd662a	0.02507313
101	0xbe2c5438	-0.16829002
102	0x3cc03eaf	0.02346739
103	0xbc8ba0af	-0.017044393
104	0x3db25dac	0.08709273
105	0xbd6a0e6c	-0.05714266
106	0xbda6581b	-0.081222735
107	0x3db18ae4	0.086690694
108	0x3cf09f19	0.029372739
109	0xbd62f23c	-0.055406794
110	0xbcf5b746	-0.029994618
111	0x3dbdbb7a	0.09264274
112	0x3d469908	0.048485786
113	0xbca7628a	-0.02043273
114	0x3db74334	0.08948365
115	0xbceb4769	-0.028720574
116	0x39b06ca5	0.00033650282
117	0x3c7a9dbe	0.015296398
118	0x3d105314	0.03523548
119	0x3c75d7b9	0.015005046

fc2.weight f4 [84, 120]
0	0x3dcbaeb0	0.09945428
1	0x3bc3d85d	0.0059767202
2	0xbd97ec9e	-0.07418178
3	0x3dad1a34	0.084522635
4	0xbd0de373	-0.03464074
5	0xbdd74851	-0.1051184
6	0x3b97ce57	0.004632752
7	0xbdc8f945	-0.098131694
8	0xbd5dda72	-0.054163404
9	0xbbce8a84	-0.0063031334
10	0xbd4953d3	-0.049152207
11	0x3e527cdd	0.20555444
12	0x3e0ef3f9	0.13960256
13	0xbd469994	-0.048486307
14	0x3d1e39ad	0.038629223
15	0x3d222b83	0.039592277
16	0x3da60e54	0.081082016
17	0xbe55a40d	-0.20863362
18	0x3e021acb	0.12705533
19	0xbde3acc7	-0.11116939
20	0x3d0fb983	0.035089027
21	0x3dfa8365	0.12232093
22	0xbcdb5791	-0.026775153
23	0xbc0a6e51	-0.008449153
24	0x3d066c40	0.03281808
25	0x3e356650	0.1771481
26	0xbe32da7d	-0.17466159
27	0x3d73d1c0	0.059526205
28	0x3de64e81	0.11245442
29	0xbc4102f0	-0.0117804855
30	0x3cabc1c9	0.020966427
31	0xbdba15e2	-0.09086205
32	0xbddc2321	-0.10748888
33	0x3e02a5dc	0.12758583
34	0xbddd7bca	-0.108146265
35	0xbd6f8462	-0.05847586
36	0xbdd4be09	-0.10387809
37	0x3e1ab7c4	0.15109164
38	0x3db2fcda	0.08739634
39	0x3dcd1b32	0.10014953
40	0x3cd78118	0.026306674
41	0xbdb1016c	-0.08642849
42	0x3d5701e8	0.052492052
43	0x3ab1c0f8	0.0013561537
44	0x3dd8f308	0.105932295
45	0xbd1021af	-0.035188373
46	0x3d13b05b	0.036056858
47	0x3e39da0f	0.18149589
48	0x3d24aaad	0.04020183
49	0xbd035987	-0.0320678
50	0xbcab597b	-0.020916691
51	0x3d976129	0.07391579
52	0xbdf58b8d	-0.11989508
53	0xbe2f5d39	-0.17125405
54	0xbcc5d25d	-0.02414816
55	0xbd38a601	-0.04508019
56	0x3c81858a	0.015810747
57	0xbd871d1a	-0.065973476
58	0x3a164ae1	0.0005733204
59	0x3e1076e4	0.14107853
60	0xbdd7441a	-0.10511036
61	0x3dbee3c7	0.09320789
62	0x3e0d324c	0.13788718
63	0x3d8723af	0.06598603
64	0x3d35f9b3	0.044427585
65	0x3db8b8c4	0.09019616
66	0x3d805f43	0.0626817
67	0x3e089257	0.13337074
68	0xbde79371	-0.11307419
69	0x3cd06ac0	0.025441527
70	0x3d560200	0.052248
71	0xbd992fff	-0.07479858
72	0xbcf9884a	-0.030460496
73	0xbda514f9	-0.08060641
74	0xbd3f2d7e	-0.046674244
75	0x3d4a96ab	0.049460094
76	0x3d2fadf3	0.0428905
77	0xbca0fba1	-0.019651236
78	0x3dd5fba5	0.10448388
79	0xbcc6eb9f	-0.024282275
80	0x3cb21d9a	0.02174263
81	0xbd3e6d99	-0.04649124
82	0x3dfe145d	0.12406228
83	0xbd9879a5	-0.07445077
84	0xbd56b26d	-0.052416254
85	0xbd9db795	-0.07701031
86	0x3d4e2661	0.05032957
87	0x3dbc29bd	0.091876484
88	0xbc9b8414	-0.018983878
89	0x3d326eca	0.043562688
90	0xbd92408e	-0.07141219
91	0x3d29ad34	0.041424945
92	0x3be2c85e	0.0069208583
93	0xbbd322d2	-0.00644336
94	0xbdfdb01d	-0.123871066
95	0x3d0e1fd6	0.03469833
96	0x3d97f399	0.074195094
97	0x3e2951a7	0.16535054
98	0x3df7a5d9	0.1209218
99	0x3d87d933	0.06633224
100	0x3da76b3b	0.081747495
101	0xbd804544	-0.06263211
102	0x3df19ec3	0.117978595
103	0xbdb0493a	-0.08607717
104	0x3cfcceba	0.030860294
105	0xbe25ca42	-0.16190436
106	0x3c50c8fd	0.012743232
107	0x3e67f68d	0.22652645
108	0x3d8d2704	0.06892207
109	0xbcbb5614	-0.022868194
110	0xbda4b630	-0.08042562
111	0xbe01e00e	-0.12683126
112	0x3be68d13	0.0070358603
113	0xbd0b1ac7	-0.033961084
114	0x3ad42781	0.001618609
115	0x3e096344	0.13416773
116	0x3d4a7e95	0.049437124
117	0xbd2e0610	-0.04248625
118	0x3c87e75c	0.016589813
119	0xbbafad90	-0.0053612664
120	0xbe3842ff	-0.17994307
121	0x3d9f53ae	0.077796325
122	0x3dcc3980	0.09971905
123	0xbc829025	-0.015937874
124	0x3cab6ca4	0.020925827
125	0x3e09b5b7	0.13448225
126	0x3d3e879a	0.04651604
127	0x3cab178a	0.020885248
128	0x3d92fcd6	0.07177131
129	0xbc9f2835	-0.019428352
130	0xbbac8c41	-0.005265743
131	0xbe15aa69	-0.14615788
132	0x3dd8b5be	0.105815396
133	0xbd329fcf	-0.043609437
134	0xbdb633f7	-0.0889663
135	0x3e15cea4	0.14629608
136	0x3e4f488c	0.20242518
137	0x3e55c02b	0.20874088
138	0xbd88f934	-0.06688157
139	0xbd076c9b	-0.03306256
140	0xbb81c936	-0.003960754
141	0xbdcd0138	-0.10009998
142	0x3ad29347	0.0016065621
143	0x3cf51cf2	0.029921029
144	0x3c20987a	0.009801978
145	0x3e4b5715	0.19857438
146	0xbd41024b	-0.047121327
147	0x3de63f40	0.11242533
148	0xbe37068f	-0.17873596
149	0xbd7d0585	-0.061772842
150	0x3da23659	0.07920522
151	0xbcdd584a	-0.027019639
152	0x3db38178	0.087649286
153	0xbd117ba6	-0.03551831
154	0x3db6378d	0.08897314
155	0xbdf3b71b	-0.11900159
156	0x3e0fbaeb	0.14036147
157	0xbd3f37ed	-0.046684194
158	0xbe3741d9	-0.17896213
159	0x3dad7449	0.08469445
160	0xbd9ab78b	-0.07554539
161	0xbde4525a	-0.1114852
162	0x3e02a37c	0.12757677
163	0xbc3746c0	-0.011186302
164	0x3e31d015	0.17364533
165	0x3dbd96d5	0.092572846
166	0x3d808592	0.062754765
167	0x3d274fa0	0.04084742
168	0xbcd468d9	-0.025928902
169	0xbcfdf3ee	-0.031000104
170	0x3e55af82	0.20867732
171	0x3d8bc739	0.06825108
172	0x3d19a88f	0.037514266
173	0x3d0df695	0.034658987
174	0x3cc6aa87	0.024251236
175	0x3d93a277	0.07208722
176	0x3caae532	0.020861242
177	0xbddfecea	-0.1093386
178	0x3e26f729	0.16305222
179	0xbd4033f5	-0.04692455
180	0xbd9f965f	-0.07792353
181	0xbd0cff39	-0.034423087
182	0x3d089570	0.03334564
183	0x3e1e0ead	0.15435286
184	0x3c09ffd7	0.008422813
185	0xbe1ce82c	-0.15322942
186	0x3d8f05f1	0.06983555
187	0xbd9980b7	-0.074952535
188	0xbdebea60	-0.11519313
189	0xbd1c2739	-0.038123343
190	0x3d34422f	0.04400843
191	0x3cad0d47	0.021124495
192	0xbddd00df	-0.10791182
193	0xbda3fa1f	-0.08006691
194	0xbe0e7956	-0.13913473
195	0x3dade4ad	0.08490882
196	0x3cf20c55	0.029546896
197	0xbc4b4b12	-0.012408035
198	0x3d616447	0.055027273
199	0x3c8a757b	0.016901722
200	0x3c540d9b	0.012942697
201	0x3da875aa	0.08225568
202	0x3dd5f6de	0.10447477
203	0x3e081d93	0.13292532
204	0xbd9262ee	-0.071477756
205	0x3da7c1da	0.08191271
206	0x3c8c8826	0.017154764
207	0x3dabddb0	0.08391893
208	0x3dec43ee	0.11536394
209	0x3d1d7145	0.0384381
210	0xbe113c3b	-0.14183132
211	0xbe0aecc2	-0.13566878
212	0x3c5e3b3b	0.013563926
213	0xbd219feb	-0.03945915
214	0xbc40c494	-0.011765618
215	0xbd91b8c8	-0.07115322
216	0x3dc277a8	0.09495479
217	0x3c00fa09	0.007872113
218	0xbbdf7954	-0.0068198834
219	0xbd55cef8	-0.052199334
220	0xbd497e95	-0.049192984
221	0xbdf9a70e	-0.12190066
222	0x3d421402	0.047382362
223	0xbd7ceb8a	-0.061748065
224	0xbd558c6a	-0.052135862
225	0x3c96662b	0.018359264
226	0xbda3822d	-0.079838134
227	0x3e3008d8	0.17190874
228	0x3c95ada5	0.018271277
229	0x3d8ef26b	0.06979831
230	0xbe25e261	-0.16199638
231	0x3dd61a25	0.104542054
232	0xbcdabf70	-0.026702613
233	0xbd53e126	-0.05172839
234	0xbd7325be	-0.059362166
235	0x3d3bdca4	0.045864716
236	0x3d9f2414	0.07770553
237	0xbd938070	-0.07202232
238	0xbde4dca0	-0.111748934
239	0xbdf24e87	-0.11831384
240	0x3e18b6e2	0.14913514
241	0xbd8eea3f	-0.06978273
242	0xbe1ab57a	-0.1510829
243	0x3db84edf	0.089994185
244	0xbd758c24	-0.0599481
245	0xbe0a9636	-0.13533863
246	0xbde0c581	-0.10975171
247	0xbc8e2498	-0.017351434
248	0x3dd1b1f7	0.10239022
249	0xbc3da645	-0.011575286
250	0x3d728eef	0.059218343
251	0x3da758d4	0.081712395
252	0xbb9a544d	-0.0047097565
253	0xbda0406e	-0.07824789
254	0x3d23820d	0.039918948
255	0x3c13e122	0.009025844

fc2.bias f4 [84]
0	0x3d86549b	0.06559106
1	0xbd2cdc88	-0.042202502
2	0x3e2c40a9	0.16821541
3	0xbdb0bbee	-0.08629595
4	0x3da5556c	0.080729336
5	0x3e1cf14e	0.15326425
6	0x3de5d363	0.112219594
7	0x3d25edcf	0.040509995
8	0x3ba8e4e2	0.005154238
9	0x3de75f81	0.11297513
10	0xbd0e27ab	-0.0347058
11	0x3d3c9383	0.046039116
12	0xbdc5cf4d	-0.0965868
13	0x3d3fddaf	0.046842273
14	0x3d950ec0	0.07278204
15	0x3df906a0	0.12159467
16	0x3e76810c	0.24072665
17	0x3d83ec04	0.06441501
18	0x3cfee9e0	0.03111738
19	0x3dbf89fd	0.09352491
20	0x3df7b724	0.12095478
21	0x3e1f3203	0.15546422
22	0x3e13f764	0.14449841
23	0xbba34aa3	-0.0049832626
24	0x3e4d2c28	0.20036376
25	0xbcdcad5c	-0.026938133
26	0x3c384da4	0.01124898
27	0x3e4983b6	0.1967915
28	0x3d6ad57c	0.0573325
29	0x3e027f44	0.1274386
30	0x3e122349	0.14271273
31	0xbe043a10	-0.12912774
32	0x3cc9c6f4	0.024631001
33	0x3e1104c0	0.14161968
34	0xbcc89311	-0.02448419
35	0x3d8b925a	0.06815024
36	0x3d57a0d5	0.052643616
37	0xbce7034b	-0.028199812
38	0xbc631364	-0.013859604
39	0x3e490981	0.19632532
40	0x3d659170	0.056046903
41	0x3dff87f2	0.124771014
42	0x3e5a7e7c	0.21337312
43	0x3e6cd5bb	0.23128407
44	0x3d4c06a2	0.049811013
45	0xbd3214f4	-0.043477014
46	0x3c7ad022	0.015308412
47	0xbe043b28	-0.12913191
48	0x3ce4c387	0.027925266
49	0xbe01fe7a	-0.12694731
50	0x3e1da843	0.15396218
51	0xbdb5c19e	-0.0887482
52	0x3dfb8da1	0.12282873
53	0xbdcfaa72	-0.10139932
54	0x3e0e3244	0.13886362
55	0xbdda5a14	-0.10661712
56	0xbc605083	-0.0136910705
57	0xbd38d7ef	-0.045127805
58	0x3dd697f9	0.10478205
59	0xbdde1a82	-0.108449
60	0xbbe545c6	-0.006996843
61	0x3daa43b0	0.083136916
62	0xbd079f2f	-0.033110794
63	0x3df3f90f	0.119127385
64	0xbc1cc339	-0.009568029
65	0xbc8502af	-0.016236631
66	0x3e53d3ce	0.20686266
67	0xbd041ccf	-0.032254037
68	0x3caa984d	0.020824576
69	0xbd6faf5e	-0.058516853
70	0xbdb14204	-0.086551696
71	0xbd6c2d35	-0.0576603
72	0xbd4207fc	-0.047370896
73	0xbdaa4eb6	-0.08315794
74	0x3e5ecb16	0.21757159
75	0xbd33f990	-0.043939173
76	0xbd95a41f	-0.07306694
77	0x3e0f2c6b	0.13981788
78	0x3bc2ec52	0.0059485817
79	0x3e6ffeb9	0.23437013
80	0x3d8badd2	0.06820263
81	0xbd94fd35	-0.07274858
82	0xbd536e72	-0.051619
83	0xbd747573	-0.05968232

fc3.weight f4 [10, 84]
0	0x3e327a66	0.17429504
1	0xbd560f3b	-0.05226062
2	0xbeaf7184	-0.34266293
3	0x3dfb9ae9	0.12285406
4	0x3bf6df68	0.0075339563
5	0x3e9694bf	0.2941036
6	0x3d294ddc	0.041334018
7	0x3e81e285	0.25368133
8	0xbd9fe567	-0.07807427
9	0xba8294d2	-0.0009962565
10	0xbdc170f0	-0.09445369
11	0x3ebd4aa5	0.36971012
12	0x3e2fca79	0.17167081
13	0xbe804412	-0.25051934
14	0x3ebd19f7	0.36933872
15	0xbec341b6	-0.3813607
16	0xbe66984e	-0.22519037
17	0xbc519c1a	-0.012793565
18	0xbc88d3a6	-0.016702484
19	0xbc53bc01	-0.012923242
20	0xbe0c4dc3	-0.13701539
21	0xbe0d2f1c	-0.13787502
22	0xbeac14ad	-0.33609524
23	0x3e8f5bde	0.27999777
24	0xbe4ea8b1	-0.20181538
25	0xbc2eb2b4	-0.010662723
26	0xbd8c18ae	-0.06840645
27	0xbd984cba	-0.074365094
28	0xbe8fa757	-0.28057358
29	0x3ec02277	0.37526295
30	0xbe83adbf	-0.25718495
31	0x3ad0785e	0.0015905013
32	0x3ea59d9d	0.32346812
33	0x3f08308e	0.5319909
34	0xbdd378d5	-0.10325781
35	0xbd693de7	-0.0569438
36	0x3e351ee0	0.17687559
37	0x3e1ec7e9	0.15505947
38	0xbdb413b9	-0.08792824
39	0x3e115db1	0.14195897
40	0xbdffdcab	-0.12493261
41	0x3e1b6d74	0.15178472
42	0xbcd9c129	-0.026581364
43	0x3c8fa69f	0.017535506
44	0xbcda1c5b	-0.026624849
45	0x3ee7bb01	0.4525986
46	0xbdc306e4	-0.09522799
47	0xbdb5a1e1	-0.088687666
48	0x3eab1b30	0.3341918
49	0x3e7dfa80	0.2480259
50	0xbd5fcbba	-0.05463765
51	0xbe0feac9	-0.14054407
52	0xbe067b7b	-0.13133042
53	0x3e319693	0.17342596
54	0x3e3cd779	0.18441571
55	0xbe552384	-0.2081433
56	0xbe27c697	-0.1638435
57	0xbde1277a	-0.10993858
58	0x3e26db88	0.16294682
59	0xbd18dc5f	-0.037319537
60	0xb8f24a27	-0.00011553271
61	0xbd9de3f3	-0.077094935
62	0xbde7b553	-0.11313882
63	0x3d5cd41e	0.05391323
64	0xbdffbf24	-0.12487629
65	0xbcc983ee	-0.024599042
66	0x3c9177d7	0.01775734
67	0xbe1ae6e7	-0.15127145
68	0xbd99b3cc	-0.07504997
69	0x3d1a7a67	0.03771439
70	0x3e802552	0.25028473
71	0x3e2829a5	0.16422136
72	0x3de28db4	0.11062184
73	0x3dc28681	0.09498311
74	0xbea0aa8b	-0.31380114
75	0x3e1d3655	0.15352757
76	0x3e99c2c7	0.30031416
77	0xbbbd746e	-0.0057817018
78	0xbdd38c28	-0.10329467
79	0xbe36753a	-0.17818156
80	0xbe3909dc	-0.18070167
81	0x3e81ff7b	0.2539023
82	0xbd9c2770	-0.076247096
83	0x3b9a1cc5	0.0047031366
84	0x3eaaad9b	0.33335575
85	0x3e05ead5	0.13077863
86	0xbd55ea50	-0.05222541
87	0x3c4b48d2	0.012407498
88	0x3d4ce11d	0.050019372
89	0xbe45efde	-0.19329783
90	0x3d47082c	0.048591778
91	0x3e8acf56	0.2711131
92	0x3e10d044	0.14141947
93	0x3e21ecfa	0.15813056
94	0x3d59b363	0.053149592
95	0xbdad52f8	-0.08463091
96	0x3e64c0d5	0.22339185
97	0x3e46210d	0.19348545
98	0xbea386ac	-0.31938684
99	0x3db35308	0.08756071
100	0xbe11627f	-0.1419773
101	0x3d80a941	0.062822826
102	0x3e6b3a99	0.22971572
103	0xbe9b28a3	-0.3030444
104	0xbe966f1e	-0.2938165
105	0xbe4e4f74	-0.20147496
106	0x3da08710	0.07838261
107	0xbe44d896	-0.19223246
108	0xbedc66c8	-0.43047166
109	0xbe420ede	-0.18950984
110	0xbf01fbe3	-0.50774974
111	0xbe03d57e	-0.1287441
112	0x3e58744a	0.21138111
113	0xbe026974	-0.1273554
114	0x3e8b69d0	0.27229166
115	0xbd9beaf9	-0.07613177
116	0xbe347ffa	-0.17626944
117	0xbeb3763a	-0.35051137
118	0x3d8ae62a	0.067821816
119	0x3e5e77cf	0.21725391
120	0xbe39568d	-0.18099423
121	0x3d51e509	0.051243816
122	0x3d5b0f0b	0.053481143
123	0xbe834372	-0.25637394
124	0xbce1f304	-0.0275817
125	0xbedce0a4	-0.43140137
126	0xbd9e02ef	-0.07715403
127	0xbc87e289	-0.016587513
128	0xbc9e29bf	-0.019307015
129	0xbe20c0d9	-0.15698566
130	0x3ce4ae0b	0.027915021
131	0x3f1c6390	0.6108942
132	0xbadabb45	-0.0016687891
133	0x3d8fda76	0.0702409
134	0xbe17d223	-0.14826255
135	0xbe76f619	-0.24117316
136	0xbea1193c	-0.31464565
137	0x3cfda50d	0.030962491
138	0x3ea2f397	0.3182647
139	0x3e2a2b79	0.16618146
140	0xbe802d00	-0.25034332
141	0x3dca43c2	0.09876205
142	0xbd3ff02a	-0.046859898
143	0x3e982f44	0.2972356
144	0x3e5439a5	0.20725115
145	0x3df1d340	0.11807871
146	0xbe14febf	-0.14550303
147	0xbd286d2e	-0.041119747
148	0xbe837865	-0.2567779
149	0x3db3c441	0.08777667
150	0xbe26f7ad	-0.16305418
151	0x3d0a3cd0	0.0337494
152	0xbe7941bc	-0.24341482
153	0xbdb4981f	-0.08818077
154	0xbd882159	-0.066469856
155	0xbe872660	-0.26396465
156	0x3c9366dd	0.017993385
157	0x3dbf5def	0.09344088
158	0x3c832bca	0.016012091
159	0x3efb4b50	0.49080896
160	0x3de9dc7d	0.11419008
161	0xbece759f	-0.40324113
162	0x3e1107c0	0.14163113
163	0xbca07067	-0.019584848
164	0xbd2835f3	-0.041067075
165	0xbdaebb56	-0.08531825
166	0xbd23ebc1	-0.040019754
167	0x3e0e0af8	0.13871372
168	0xbe4214a6	-0.18953189
169	0xbe770681	-0.24123575
170	0x3ea4062d	0.32035962
171	0xbdc7ef9a	-0.09762497
172	0x3cbacdbb	0.022803178
173	0x3ddcb5a0	0.1077683
174	0x3c38577f	0.011251329
175	0xbd803a7c	-0.06261155
176	0xbdd2cca8	-0.10292941
177	0xbdf3c5ca	-0.1190296
178	0x3f02ae93	0.5104763
179	0x3e3bc95e	0.18338534
180	0x3e601238	0.2188195
181	0xbd0d7b7b	-0.03454159
182	0x3e1d688d	0.15371914
183	0x3e4a2549	0.19740786
184	0x3e3beede	0.1835284
185	0xbd098be9	-0.033580694
186	0xbe814bf9	-0.25253275
187	0x3e7ddd94	0.24791557
188	0xbe23cecc	-0.15996855
189	0xbc9eee42	-0.01940072
190	0x3e8fd4fc	0.28092182
191	0xbd767563	-0.060170542
192	0x3e50764b	0.20357625
193	0xbd9f37ac	-0.077742904
194	0xbd9894c6	-0.07450251
195	0xbd9fcd75	-0.0780286
196	0xbeab2423	-0.33426008
197	0xbe02f6ec	-0.12789506
198	0xbd8d475a	-0.06898375
199	0x3e18fda3	0.14940505
200	0x3e9aafd3	0.30212268
201	0xbadfb017	-0.0017066029
202	0xbc89fbed	-0.01684376
203	0xbe1d19c1	-0.15341856
204	0x3d77b54b	0.06047563
205	0xbe9ceac9	-0.30647877
206	0xbcb7e19b	-0.022446444
207	0x3c80c4f0	0.015718907
208	0xbdfa05bf	-0.12208127
209	0x3e8a7469	0.2704194
210	0x3ed2ff2d	0.4121031
211	0x3d444a45	0.04792239
212	0x3e6c7f1e	0.23095366
213	0xbe269d46	-0.16270933
214	0xbdfc04bc	-0.123055905
215	0xbdc3f398	-0.09567946
216	0x3e990bb4	0.2989174
217	0xbe0ae116	-0.13562426
218	0x3e124938	0.14285743
219	0x3d99b893	0.07505908
220	0xbddf25ba	-0.10895868
221	0x3ea3a4ed	0.31961766
222	0xbe3bf611	-0.18355586
223	0x3e7e7ff1	0.24853493
224	0x3e03f736	0.12887272
225	0x3cd9da1f	0.026593266
226	0xbdfcb892	-0.123398915
227	0x3e880ef9	0.26573923
228	0xbe3915ce	-0.18074724
229	0xbeb21f64	-0.34789574
230	0xbddfcf92	-0.10928263
231	0x3e47d96d	0.19516535
232	0xbe91d8ff	-0.28485867
233	0x3e9fa680	0.31181717
234	0x3e7bcb56	0.24589285
235	0x3e06482e	0.13113472
236	0x3eb60dcb	0.35557398
237	0x3d666c38	0.05625555
238	0xbe0dc813	-0.13845854
239	0xbe1d18fb	-0.1534156
240	0x3d52489c	0.051338777
241	0x3e0a6ea2	0.13518766
242	0xbe61494e	-0.2200062
243	0x3d27a6f0	0.04093069
244	0x3ebaff83	0.36523065
245	0xbdf21b52	-0.11821617
246	0xbde4523f	-0.111485
247	0x3eab8b4f	0.33504722
248	0xbb529b97	-0.0032136196
249	0xbe579ef3	-0.21056728
250	0xbdd7c0b9	-0.10534806
251	0xbd20e708	-0.03928283
252	0xbaddcf53	-0.0016922749
253	0x3df49b7e	0.1194372
254	0xbe2a9faf	-0.16662477
255	0x3d6d27dc	0.05789934

fc3.bias f4 [10]
0	0xbe0e8ee7	-0.139217
1	0xbe9542c4	-0.291525
2	0x3d3853e9	0.045001898
3	0x3aab1186	0.0013051487
4	0x3eb1c320	0.3471918
5	0xbcaed473	-0.021341538
6	0xbda5d53d	-0.080973126
7	0xbd581154	-0.0527509
8	0x3d6c93df	0.05775821
9	0xbdfe3523	-0.12412479
